…
X (Interest)
Training data shape: (1757317, 10);
Validing data shape: (585772, 10);
Testing data shape: (585773, 10).
Y (Observed)
Training data shape: (1757317, 4);
Validing data shape: (585772, 4);
Testing data shape: (585773, 4).
Model: "model"
_________________________________________________________________
 Layer (type)                Output Shape              Param #   
=================================================================
 input_1 (InputLayer)        [(None, 10)]              0         
                                                                 
 flatten (Flatten)           (None, 10)                0         
                                                                 
 dense (Dense)               (None, 4096)              45056     
                                                                 
 dense_1 (Dense)             (None, 4096)              16781312  
                                                                 
 dense_2 (Dense)             (None, 2048)              8390656   
                                                                 
 dense_3 (Dense)             (None, 2048)              4196352   
                                                                 
 dense_4 (Dense)             (None, 1024)              2098176   
                                                                 
 dense_5 (Dense)             (None, 1024)              1049600   
                                                                 
 dense_6 (Dense)             (None, 4)                 4100      
                                                                 
=================================================================
Total params: 32565252 (124.23 MB)
Trainable params: 32565252 (124.23 MB)
Non-trainable params: 0 (0.00 Byte)
_________________________________________________________________
Epoch 1/1024
430/430 - 21s - loss: 0.4100 - val_loss: 0.3702 - 21s/epoch - 50ms/step
Epoch 2/1024
…
